model/keypoint_classifier/keypoint_classifier.tflite (tflite, 6488 bytes, 6 tensors)

sequential/dense/BiasAdd/ReadVariableOp f4 [20]
0	0xbe935fb3	-0.2878395
1	0xbec4fc16	-0.38473576
2	0xbf4b8324	-0.7949698
3	0xbeb7dd43	-0.35910997
4	0xbf21c5df	-0.6319255
5	0xbf07b668	-0.53012705
6	0xbf235db7	-0.6381487
7	0xbf2560d2	-0.6460086
8	0xbe972783	-0.29522333
9	0xbeafc02b	-0.343263
10	0x3e8f78bf	0.2802181
11	0xbf48860c	-0.7832954
12	0xbe829972	-0.25507694
13	0xbe92b384	-0.28652585
14	0xbeda74a7	-0.42667124
15	0xbe2fe42b	-0.17176883
16	0xbf2268a7	-0.63440937
17	0xbef9bd21	-0.48777106
18	0xbe3ad03d	-0.18243499
19	0xbdcc2e14	-0.09969726

sequential/dense_2/BiasAdd/ReadVariableOp f4 [4]
0	0xbed3aa08	-0.4134066
1	0xbdd3dc5b	-0.10344764
2	0x3f1f2d05	0.6217807
3	0xbd942be9	-0.07234938

sequential/dense_1/BiasAdd/ReadVariableOp f4 [10]
0	0x3dec77ff	0.11546325
1	0xbe10be76	-0.14135155
2	0x3eaa0ed1	0.3321443
3	0x3ea55d8a	0.32297927
4	0x3f0f42e3	0.55961436
5	0xbe9b19f2	-0.30293232
6	0x3eeb778c	0.45989645
7	0xbda9e686	-0.08295922
8	0x3f628c2d	0.8849514
9	0x3db43955	0.08799998

sequential/dense/MatMul f4 [20, 42]
0	0xbe4f04e1	-0.20216705
1	0x3e4f58c0	0.20248699
2	0x3e2fd3eb	0.17170684
3	0xbf0b0830	-0.5430937
4	0x3ed796e7	0.42107317
5	0xbf110b21	-0.56657606
6	0x3eb839d1	0.3598161
7	0xbee7d2f0	-0.4527812
8	0x3eaf0cd5	0.34189478
9	0xbed5e90c	-0.41779363
10	0xbe93ec31	-0.28891137
11	0xbe81f5ea	-0.2538293
12	0xbdd9fbc6	-0.10643725
13	0xbeaef60e	-0.341721
14	0x3e09ceb5	0.13457759
15	0xbdbd9628	-0.09257156
16	0x3e17a01c	0.1480717
17	0xbda0fa01	-0.078601845
18	0xbea3c42e	-0.3198561
19	0xbd93e2e9	-0.07221014
20	0xbddfc5ed	-0.10926423
21	0xbd9cff4b	-0.07665881
22	0x3e411a88	0.18857777
23	0xbd30f065	-0.043198008
24	0x3ee7a55b	0.45243344
25	0x3c12a557	0.008950553
26	0xbea8e34a	-0.32985908
27	0xbe006762	-0.12539437
28	0xbe0a6710	-0.13515878
29	0xbdcaf7fe	-0.09910582
30	0x3d9aaa38	0.07551998
31	0x3d45a6aa	0.048254646
32	0x3ebbcc0f	0.36679122
33	0x3d893132	0.066988364
34	0x3dfe7673	0.12424936
35	0x3d11381b	0.035453897
36	0xbe0a31c0	-0.1349554
37	0x3dc49be0	0.09600043
38	0xbd82d09f	-0.063874476
39	0x3df793f2	0.12088765
40	0xbe3d6c26	-0.18498287
41	0x3db7cc29	0.08974487
42	0xbe293b85	-0.16526611
43	0x3de64384	0.11243346
44	0x3e079888	0.1324178
45	0x3e81ef7a	0.2537802
46	0xbddf5392	-0.10904612
47	0x3eb01644	0.34391987
48	0xbe1fa76d	-0.15591212
49	0x3efa994c	0.4894508
50	0x3d96a739	0.07356114
51	0x3eaf49b6	0.34235924
52	0x3d2458a2	0.04012359
53	0x3d4d38eb	0.05010311
54	0xbc86edfa	-0.016470898
55	0x3cf96264	0.030442424
56	0xbb5cc509	-0.0033686778
57	0x3d86ee8d	0.06588469
58	0x3c87dec6	0.016585719
59	0x3cfec992	0.031101976
60	0x3e15b2aa	0.14618936
61	0x3d1b7b8a	0.037959613
62	0x3d5f8f34	0.05457993
63	0x3db9494c	0.090471834
64	0x3d96a3ce	0.07355462
65	0xbe5c8c2a	-0.21537843
66	0xbe8a9b15	-0.27071443
67	0xbf2d7afe	-0.67765796
68	0x39d294be	0.00040165143
69	0x3d185043	0.03718592
70	0x3d40022c	0.04687707
71	0x3c60c402	0.013718607
72	0x3d122ed8	0.035689205
73	0xbeedda92	-0.46455818
74	0xbd949bee	-0.07256304
75	0xbec8fbfd	-0.39254752
76	0x3cb1f999	0.021725463
77	0x3d3e99aa	0.046533264
78	0xbd0b3540	-0.03398633
79	0x3daabae6	0.08336429
80	0xbe50a055	-0.20373662
81	0xbe647de3	-0.22313647
82	0xbe202e5b	-0.15642683
83	0xbf05e143	-0.5229685
84	0xbe0ad9c7	-0.13559638
85	0x3dd8337c	0.10556695
86	0xbf0ce5b7	-0.5503802
87	0xbed95b44	-0.42452443
88	0xbe8e4048	-0.27783418
89	0xbe3a93f6	-0.18220505
90	0xbe6b98c6	-0.23007497
91	0xbddb7124	-0.10714939
92	0xbebdf5ba	-0.37101537
93	0xbe957987	-0.2919428
94	0xbd842595	-0.06452481
95	0x3ce890dc	0.028389387
96	0x3b176435	0.00231005
97	0x3d767269	0.060167704
98	0x3d8c68f8	0.06855959
99	0x3e3e4296	0.18580088
100	0x3df3c9d0	0.11903727
101	0x3ddc97b2	0.10771121
102	0xbce25183	-0.027626758
103	0xbaa94d9b	-0.0012916805
104	0x3d7014ef	0.058613714
105	0xbde4b0ac	-0.1116651
106	0x3b345cfe	0.0027521248
107	0xbdf327d8	-0.11872834
108	0xbdc5b527	-0.09653693
109	0xbd839164	-0.064242154
110	0xbe3e2f55	-0.18572743
111	0xbc899112	-0.016792808
112	0x3d3830c2	0.044968374
113	0xbe01dfea	-0.12683073
114	0x3b3877d1	0.0028147588
115	0xbdc8a01f	-0.09796166
116	0xbe276713	-0.16347913
117	0xbbfaae56	-0.007650177
118	0xbd7f68ee	-0.062355928
119	0xbd1d99df	-0.03847682
120	0x3cee483e	0.029087182
121	0xbe4d7989	-0.20065893
122	0x3d4fbbe9	0.050716314
123	0xbdb77582	-0.0895796
124	0xbd9f58e4	-0.077806264
125	0x3c0e8dfb	0.008700843
126	0x3c6aa020	0.014320403
127	0x3dd25e1c	0.10271856
128	0xbd12fbd4	-0.035884693
129	0x3eda8ee2	0.42687136
130	0x3e035d36	0.12828526
131	0x3e43dafa	0.19126502
132	0x3e4998d5	0.19687207
133	0x3e39851f	0.18117188
134	0x3e437a08	0.1908952
135	0x3e2da005	0.16955574
136	0xbd7d45a2	-0.061833985
137	0xbd380d7b	-0.04493473
138	0x3bcd1ac4	0.006259294
139	0xbb825f34	-0.0039786343
140	0xbc4bd29e	-0.012440352
141	0x3a2a84ec	0.0006504792
142	0xbd051a70	-0.032495916
143	0x3baa3aa4	0.005194979
144	0x3b37755f	0.0027993543
145	0xbb55552c	-0.0032551987
146	0xbd6f5b16	-0.058436476
147	0x3d152f79	0.036422227
148	0xbe6458c8	-0.22299492
149	0xbe02d58e	-0.12776777
150	0xbda2fc21	-0.07958246
151	0xbebe1fa3	-0.37133512
152	0x3e6d28a3	0.23160033
153	0x3d1d760d	0.03844266
154	0xbc4d659e	-0.012536434
155	0x3e40bac3	0.18821244
156	0xbe8538a1	-0.26019767
157	0xbe0c5cb7	-0.13707243
158	0xbede9f24	-0.4348079
159	0xbf3d03a9	-0.7383371
160	0x3e6c1cc6	0.23057851
161	0x3e28d2e4	0.16486698
162	0x3d1ef127	0.0388042
163	0x3e32048c	0.17384547
164	0xbe47ffb8	-0.19531143
165	0xbe08210f	-0.13293861
166	0x3de395e6	0.11112575
167	0xbefcf483	-0.49405298
168	0x3e5a4164	0.21314007
169	0xbe97e516	-0.29666966
170	0xbe854acc	-0.26033628
171	0x3efc2b0d	0.49251595
172	0x3d8a94c5	0.06766657
173	0x3e7d7f08	0.2475549
174	0xbd7e7b54	-0.062129334
175	0x3d9978fb	0.07493778
176	0x3dc8bf44	0.09802106
177	0x3dda7b34	0.106680304
178	0xbde59ea2	-0.112118974
179	0x3b6fdbe8	0.003659958
180	0x3d5a4815	0.0532914
181	0x3da98b77	0.08278554
182	0x3dab38d1	0.08360446
183	0x3dec4523	0.11536624
184	0x3df3fbfc	0.119132966
185	0x3d88892d	0.06666789
186	0xbda609cd	-0.08107338
187	0xbdb3ee6b	-0.08785709
188	0x3d0b59f9	0.03402135
189	0x3c116232	0.008873509
190	0xbc185466	-0.009297466
191	0xbd98baea	-0.07457526
192	0xbea1761b	-0.3153542
193	0xbe6ae70b	-0.22939698
194	0x3cda9f4a	0.026687283
195	0xbdabf28f	-0.08395874
196	0x3d474654	0.048651055
197	0xbdc7ed0e	-0.097620115
198	0xbde61e85	-0.1123629
199	0xbe2cd77e	-0.16879079
200	0xbec78f2e	-0.38976425
201	0xbee53bbe	-0.44772142
202	0xbd3834ed	-0.04497235
203	0xbdbfa423	-0.093574785
204	0x3ddbee3e	0.107388005
205	0xbe3d29f8	-0.18473041
206	0xbe13325e	-0.14374682
207	0xbee6608a	-0.44995528
208	0xbf273ec4	-0.6533015
209	0xbee1ed1a	-0.44126207
210	0xbdc83566	-0.0977581
211	0xbd80c0e0	-0.06286788
212	0x3f108f54	0.564687
213	0x3f06bbfc	0.5263059
214	0x3ef363f8	0.47537208
215	0x3cf85f2c	0.030318819
216	0x3f058f00	0.52171326
217	0xbc81d3ae	-0.015848007
218	0x3f471c8c	0.77777934
219	0x3ca64e08	0.02030088
220	0xbd8b1b8e	-0.06792365
221	0x3afce683	0.0019294772
222	0xbd01083b	-0.03150199
223	0x3d3080ff	0.04309177
224	0xbc86c415	-0.016450921
225	0x3ccf2171	0.0252845
226	0x3b959e9d	0.0045660273
227	0x3c9f1ece	0.019423869
228	0xbe0e028e	-0.13868162
229	0xbdd8f26b	-0.105931126
230	0xbd937368	-0.07199746
231	0xbbda34d2	-0.0066591287
232	0xbe304427	-0.17213498
233	0xbdcd8402	-0.10034944
234	0xbe579283	-0.21051984
235	0xbe2371b7	-0.15961348
236	0x3d404552	0.04694111
237	0xbc948190	-0.018128186
238	0xbe3055ee	-0.1722028
239	0xbde34ee4	-0.110990316
240	0xbee05b0d	-0.43819466
241	0xbbbb2fb9	-0.005712476
242	0xbf210bd2	-0.6290866
243	0xbdfd28ea	-0.12361319
244	0x3ea323aa	0.31863147
245	0xbcbc99d0	-0.023022562
246	0xbdd6bc9b	-0.104851924
247	0x3dfec405	0.124397315
248	0xbeae24ad	-0.34012356
249	0x3e1db4ce	0.15401003
250	0xbf17ea4f	-0.593419
251	0x3d6d31d0	0.057908833
252	0xbe36b753	-0.1784337
253	0xbe92c1d6	-0.2866351
254	0x3f1b885f	0.6075496
255	0xbee47ecd	-0.4462799

sequential/dense_1/MatMul f4 [10, 20]
0	0x3e12980e	0.14315817
1	0x3f1270be	0.5720328
2	0x3f1b4384	0.60649896
3	0x3f64a9a8	0.89321375
4	0x3f68df00	0.9096527
5	0x3e798314	0.24366409
6	0x3df760d1	0.12079013
7	0xbe3e0732	-0.18557432
8	0xbdbcc1d0	-0.09216654
9	0x3d717c90	0.058956683
10	0x3d1596ad	0.03652065
11	0xbe84d785	-0.25945678
12	0x3cba2246	0.022721421
13	0x3ec9d4ea	0.39420253
14	0x3f43a8e9	0.7642961
15	0x3e924a53	0.2857233
16	0xbec99406	-0.39370745
17	0x3f64ced0	0.8937807
18	0xbf52c485	-0.82331115
19	0x3e418b65	0.18900831
20	0x3df288f5	0.11842529
21	0x3e6532e2	0.22382692
22	0xbd6ad9e7	-0.057336714
23	0xbdb1cd48	-0.086817324
24	0x3e74807d	0.2387714
25	0x3f4fc664	0.81162095
26	0xbdc90cd6	-0.098169014
27	0xbee00d6f	-0.4376025
28	0x3efca040	0.4934101
29	0x3cfb51f4	0.030678727
30	0x3ee16e1e	0.44029325
31	0x3e415924	0.1888166
32	0xbd1a53fe	-0.037677757
33	0xbf115985	-0.5677722
34	0x3f24ad7b	0.6432721
35	0x3f1b910f	0.60768217
36	0xbde5336e	-0.1119145
37	0x3f223ad4	0.63371015
38	0x3f049dd4	0.51803327
39	0xbb210799	-0.002457118
40	0xbdcd3904	-0.100206405
41	0x3eb37fd4	0.35058463
42	0x3c30d7b4	0.010793615
43	0x3ef006fd	0.46880332
44	0x3ed5f4b0	0.41788244
45	0x3e4c924d	0.19977684
46	0xbf2cc163	-0.67482585
47	0xbedbad68	-0.42905736
48	0xbfb0c64c	-1.3810515
49	0xbf2e2711	-0.6802836
50	0xbf6066f4	-0.87657094
51	0xbebdd92d	-0.37079754
52	0xbd1f8034	-0.038940623
53	0x3e9c12d3	0.30483112
54	0xbf1b317f	-0.606224
55	0x3c87bf18	0.016570613
56	0xbeb86510	-0.36014605
57	0xbdeb7094	-0.11496082
58	0xbd41a7a6	-0.047279023
59	0xbf1a4e7c	-0.6027601
60	0x3e637a93	0.22214727
61	0x3ed975c2	0.42472655
62	0x3f282493	0.6568081
63	0x3dca0093	0.09863391
64	0x3ea0c7f2	0.31402546
65	0x3e982972	0.2971912
66	0x3f640e5c	0.8908441
67	0x3f7d103b	0.9885289
68	0xbf6ead3c	-0.93233085
69	0x3ec0f204	0.37684643
70	0xbd258560	-0.0404104
71	0x3f01472a	0.5049921
72	0xbee2eb50	-0.44320154
73	0xbdbe0b73	-0.092795275
74	0x3dcd5ae8	0.100271046
75	0xbca914e6	-0.020639848
76	0x3f1e9e58	0.61960363
77	0xbe00c298	-0.12574232
78	0xbe1479a7	-0.14499532
79	0xbd0961ef	-0.033540662
80	0xbf9298f7	-1.1452931
81	0x3e9b7c78	0.303684
82	0x3c9bc8a0	0.019016564
83	0x3e452c96	0.1925529
84	0x3f0d7c4f	0.55267805
85	0xbf03ca85	-0.51480895
86	0xbfb5da85	-1.4207312
87	0x3c49690e	0.012293113
88	0xbfcdf1db	-1.6089433
89	0xbf80af22	-1.0053446
90	0xbf8bdca7	-1.0926713
91	0xbd7f0e73	-0.06226964
92	0xbfa70f3b	-1.3051523
93	0xbe24379d	-0.1603684
94	0xbf2c272d	-0.6724728
95	0x3ebaa1e2	0.36451632
96	0x3e8bc533	0.2729889
97	0xbfaaf7ac	-1.3356833
98	0xbfac2bac	-1.3450828
99	0xbf9d5b85	-1.2293555
100	0x3ee405b5	0.44535604
101	0x3e07a028	0.13244689
102	0x3ee4153c	0.4454745
103	0x3e94c833	0.2905899
104	0x3f29da3e	0.66348636
105	0x3f4ccafc	0.7999723
106	0x3ef5d24e	0.48012012
107	0x3f09bb86	0.53801763
108	0xbee8a2a8	-0.45436597
109	0x3dc32b83	0.095297836
110	0x3e80039d	0.25002757
111	0x3ef2e5a4	0.47440827
112	0x3f5cf644	0.8631327
113	0x3eb7cfc3	0.35900697
114	0x3e8a4355	0.27004495
115	0x3c5156d6	0.012777051
116	0x3f0f59b8	0.55996275
117	0x3e2ab969	0.16672291
118	0x3e0b79e2	0.13620713
119	0x3e57c50d	0.21071263
120	0x3f14286d	0.57874185
121	0x3ca8e7a8	0.020618275
122	0xbea57d0c	-0.32321966
123	0xbc903cd8	-0.017607138
124	0xbd0e1b9f	-0.03469431
125	0x3dc67dcd	0.09691963
126	0x3f3e1045	0.74243575
127	0x3e8bd5f9	0.27311686
128	0x3f7bf77a	0.98424494
129	0x3ed35aef	0.41280314
130	0x3e8b2cdd	0.27182665
131	0x3f3079eb	0.6893603
132	0x3e90f100	0.28308868
133	0xbc50356a	-0.012708047
134	0x3e3053ac	0.17219418
135	0x3ee73352	0.45156342
136	0x3f5a4615	0.85263187
137	0x3f0e75a9	0.55648285
138	0x3f1de7d8	0.6168189
139	0x3f48cf08	0.78440905
140	0x3ec6f288	0.38856912
141	0x3ef942e8	0.48683858
142	0x3dac58bd	0.08415363
143	0x3f09aa2a	0.53775275
144	0x3df6de6f	0.120541446
145	0xbe95f72e	-0.29290146
146	0xbe17b4f2	-0.14815119
147	0xbe4c3f0b	-0.19945924
148	0x3e604caf	0.21904252
149	0xbe6de5a9	-0.2323214
150	0xbe555c3c	-0.20835966
151	0x3bdf8f7d	0.006822525
152	0x3cc4f64f	0.02404323
153	0x3f26075a	0.6485497
154	0x3f100216	0.5625318
155	0x3ed46c6d	0.41488972
156	0x3c8c44f7	0.017122729
157	0x3f0b0995	0.54311496
158	0x3e6321ce	0.22180864
159	0xbdb03a66	-0.086048886
160	0x3f30c7b4	0.6905472
161	0xbe6cb08d	-0.23114224
162	0xbf2807d4	-0.65636945
163	0xbf13f05e	-0.57788646
164	0xbeac7ae8	-0.3368752
165	0xbf280432	-0.656314
166	0xbea0abc9	-0.31381062
167	0x3d1e17d1	0.03859693
168	0x3f9bfe63	1.2187008
169	0x3f5fa2ac	0.8735759
170	0x3f293b0e	0.66105735
171	0xbccb5c04	-0.02482415
172	0x3ec0effe	0.376831
173	0x3d2aa790	0.041663706
174	0xbf185ad8	-0.59513617
175	0xbe4e7b19	-0.20164146
176	0x3db8fb20	0.09032273
177	0xbec1dfda	-0.37866098
178	0xbe3c0eff	-0.18365096
179	0x3f1cb04e	0.6120652
180	0x3e4068d5	0.1878999
181	0x3e5d8a18	0.2163471
182	0xbe45af6f	-0.19305204
183	0x3e9dedb1	0.30845407
184	0x3ee0876f	0.43853328
185	0x3f1927cc	0.5982635
186	0xbd9c4f0e	-0.07632266
187	0xbef0c4d0	-0.47025156
188	0x3f1df835	0.6170686
189	0xbc525bfe	-0.012839315
190	0x3e80a7d5	0.25128046
191	0x3da54b36	0.08070986
192	0x3be097fc	0.0068540554
193	0x3f41ce66	0.75705564
194	0x3ebc5965	0.36786953
195	0xbf77de8c	-0.96823955
196	0xbe76a016	-0.24084505
197	0x3ec16a96	0.3777663
198	0x3eeb0b19	0.45906904
199	0x3c5b168f	0.013372078

sequential/dense_2/MatMul f4 [4, 10]
0	0x3ed85fc1	0.42260554
1	0x3f2a8047	0.66601986
2	0xbd217b45	-0.0394242
3	0xbf751426	-0.9573387
4	0xbecf333a	-0.4046877
5	0x3e8d46c7	0.2759306
6	0xbd29f826	-0.04149642
7	0x3f3e0ef2	0.74241555
8	0xbedaa793	-0.42705974
9	0x3f8ab6c3	1.0837024
10	0xbd4ee1ac	-0.050508186
11	0xbf1a1f8a	-0.60204375
12	0xbf239f14	-0.6391461
13	0x3f5f182e	0.8714627
14	0xbe6b2174	-0.2296198
15	0x3f922e02	1.142029
16	0x3e48e7ca	0.1961967
17	0xbef0b039	-0.47009447
18	0xbecaea3e	-0.39631838
19	0xbe8c12f8	-0.27358222
20	0xbfb662ae	-1.4248865
21	0xbf3e61f4	-0.74368215
22	0x3eed7c7d	0.4638404
23	0xbf3a75b2	-0.7283584
24	0xbed64fff	-0.41857907
25	0xbe86285c	-0.26202667
26	0x3ed3f012	0.41394097
27	0xbf55955d	-0.83431035
28	0x3f417ae2	0.7557813
29	0xbefcca56	-0.4937312
30	0x3f1640d7	0.5869269
31	0xbf83b324	-1.0289044
32	0x3f46e521	0.7769337
33	0xbe8b93d7	-0.2726123
34	0x3f8b9ec4	1.0907826
35	0xbe9a5782	-0.30144888
36	0xbfc4bb7a	-1.5369713
37	0x3d58873a	0.052863337
38	0xbfc34af9	-1.5257255
39	0xbef6df3f	-0.48217198
